IN2392/Exercise2/exercise_2/runs/2_2_simple_nn/model_best.ckpt (torch, 49184 bytes, 20 tensors)

conv1.weight f4 [4, 1, 4, 4, 4]
000000 f9 c3 9e bd 69 03 fd 3d ad 06 28 bd 3c 19 ae bc
       -0.077522226 0.12354166 -0.04102199 -0.021252267
000010 7f 73 5f bc c6 92 94 3d 61 56 86 bd 25 f6 b6 3d
       -0.013638376 0.07254557 -0.06559444 0.08933667
000020 4d f1 fa bd e1 f5 76 3c 44 51 18 3e cd 45 60 bd
       -0.12253056 0.015073271 0.1487475 -0.054754067
000030 35 ab 80 bd 3d bc fa bd 9b d9 ab 3c 59 97 dd bd
       -0.06282655 -0.12242935 0.020977786 -0.10819883
000040 78 94 22 3d 08 3a 8e 3d 53 73 22 3c 9b 48 c1 3b
       0.039692372 0.06944662 0.009915191 0.005898548
000050 85 ab 29 3c 4d d1 a2 3d 9e 8f 95 3d 68 43 f2 3d
       0.010355835 0.07950077 0.073027834 0.11829263
000060 cb 43 d1 3d b0 cb 60 3e e5 95 b4 3d b7 8a f8 3d
       0.102180086 0.219527 0.088176526 0.12135833
000070 cb de 45 bb dc 24 a4 3d 61 3d e0 3d 85 1e 09 be
       -0.003019261 0.08014843 0.10949207 -0.13390549
000080 8e c2 12 be da f9 9b 3d 7c c4 ff 3d bb 34 5a 3d
       -0.14332029 0.07616015 0.12488648 0.053272944
000090 2c 08 d4 bd 15 a3 5f 3e c6 70 24 3d 52 a4 ad bd
       -0.10353121 0.21839555 0.04014661 -0.08478607
0000a0 2a cb fb bd 91 0c 4a 3d 16 da 3c 3e 3b 18 91 ba
       -0.1229461 0.04932839 0.18442568 -0.0011069843
0000b0 8d b2 4e 3d cd 56 c0 bb fe 45 1b bd 59 61 5f 3d
       0.050463248 -0.0058697225 -0.037908547 0.054536197
0000c0 69 bd 2d be df a1 17 3d 1c 53 36 ba 62 c5 56 be
       -0.16966785 0.037019607 -0.0006955133 -0.20973733
0000d0 be 47 8c bd ea ec eb 3d 9f 19 c2 3d 5f 43 01 bd
       -0.06849621 0.11519797 0.09477543 -0.03155839
0000e0 87 09 0e 3d 46 cb bb bc c8 77 d2 3d a9 89 be bd
       0.034677055 -0.022924077 0.10276753 -0.093036
0000f0 5b d5 3a be 69 ca f5 bd 61 c5 c1 bc d5 84 14 bd
       -0.18245451 -0.12001497 -0.023653688 -0.03625949
000100 de 88 10 bc be 42 17 bd ee d3 91 bd 78 dd 11 3e
       -0.008821694 -0.036928885 -0.071205005 0.1424464
000110 80 c2 93 ba a6 af 8e 39 50 1e 3b 3e 33 a7 c2 3d
       -0.0011273175 0.0002721522 0.18273282 0.09504547
000120 8a 81 09 bd 90 b3 86 bd bf 30 b0 3d ef 46 74 3d
       -0.033570804 -0.065772176 0.086030476 0.05963796
000130 c7 64 94 3d 85 21 ba bd ad c9 a3 bd bd a3 e4 3c
       0.07245784 -0.090884246 -0.07997451 0.027910108
000140 fa 52 a0 3d 50 ca fa bd 91 a4 53 be 71 05 00 3e
       0.078283265 -0.12245619 -0.20668246 0.12502076
000150 8d eb 8d 3d 15 76 01 be 7c c5 cc bc 79 a6 ec 3d
       0.06929693 -0.12642701 -0.024996512 0.1155519
000160 ba 04 3a bb 9d 53 99 bd 87 42 0f bd 16 0b 2d 3e
       -0.0028384165 -0.07486651 -0.034975555 0.1689876
000170 5f 7f 2b bd ff ae 71 bc 42 bb 34 be 2c a5 43 bd
       -0.041869517 -0.014751195 -0.17649558 -0.047764942
000180 d8 79 f7 bd f6 41 53 be 72 9e 2d be 88 46 08 3e
       -0.12083787 -0.20630631 -0.16954973 0.13308156
000190 ca 07 94 bd db c7 8e 3c 81 ec 28 be 3f d8 8d bb
       -0.07228048 0.017429283 -0.16496469 -0.004328757
0001a0 05 69 bd bb a8 f9 29 bd 3e 1f eb bd e5 4e fc 3d
       -0.0057803416 -0.041497856 -0.11480568 0.123197354
0001b0 a7 78 9a bd a6 97 32 bd ce 7c 9c bd 9e 64 6d bd
       -0.07542544 -0.043601654 -0.07640992 -0.057957284
0001c0 75 17 0a 3e 7d f5 a9 bc 5d 41 09 3e 53 c6 2a 3e
       0.1348551 -0.02074694 0.1340384 0.16677217
0001d0 af e3 03 bc 2a e4 db 3d 9f b9 37 bd 3d fb fa 3d
       -0.0080498895 0.10736878 -0.044854756 0.12254951
0001e0 6f c5 59 bc af e0 11 3e 59 4f ce 3c 68 5a 3d 3e
       -0.013291701 0.14245866 0.02518432 0.18491518
0001f0 e6 14 67 bd 7c 79 f6 bc 52 ca 57 bd da e5 de 3d
       -0.056416415 -0.030087225 -0.052683182 0.108836845
000200 b8 59 35 3d e2 2c 70 bc 5e 8f bb bd d2 71 a3 bc
       0.044275016 -0.014659138 -0.091582045 -0.019951735
000210 2a de 7f bd 70 c9 f5 bd 50 f0 63 bb 4f 9b 66 3c
       -0.06246773 -0.12001312 -0.0034780689 0.014075114
000220 83 b5 6d 3d e9 52 b3 bd 1f f3 12 3e 81 be fb 3c
       0.05803443 -0.08756048 0.14350556 0.030730488
000230 6c 00 c5 3d 2e b7 6f bd 23 3d 1b 3e 82 54 8f 3b
       0.09619221 -0.058524303 0.1516004 0.004374088
000240 e9 18 2a be e3 2a b1 ba c4 17 0d bd 86 16 dd 3d
       -0.16611065 -0.001351681 -0.034446493 0.10795312
000250 79 45 33 be 4c 3f ea bb 74 4b ab 3c ee e2 b0 3d
       -0.1750697 -0.007148659 0.020910002 0.086370334
000260 05 a4 1c be e1 1a b6 3d 4c 8d 40 3d 4b 3a 34 3e
       -0.15296943 0.088918455 0.04700975 0.17600362
000270 ac ff 7c 3d 32 46 9d bd 2e ae ae bd c6 7a db 3d
       0.061767265 -0.07679404 -0.08529316 0.107167765
000280 05 53 14 be da 97 f0 bd 49 6c e2 3d 1e 42 b5 3d
       -0.14484794 -0.117477134 0.1105581 0.088505015
000290 bd d3 9c bd 44 4c 83 3d 70 d3 e7 bc 97 dc 13 3e
       -0.07657573 0.06411031 -0.028299063 0.14439617
0002a0 2b 52 f7 bd 00 3d 0e 3d 3b c0 e1 3d 89 b4 39 bd
       -0.12076219 0.034726143 0.11022993 -0.045338187
0002b0 73 20 2f bd ee ab d0 3d e4 e4 09 3b e8 3d 67 3c
       -0.042755555 0.10189043 0.002104097 0.014113881
0002c0 eb 60 59 bd 15 50 31 bc c8 73 96 3b a0 01 20 3d
       -0.053070944 -0.010822316 0.004591439 0.03906405
0002d0 b7 6d 7a bd d3 dd 0a 3c 4e d6 03 3e 76 54 9f 3d
       -0.06113979 0.008475739 0.1287472 0.077797815
0002e0 ad 94 d5 3d 07 fa 4d bc 2a a9 2e 3e 4f fb be 3d
       0.10428748 -0.012571818 0.17056718 0.09325277
0002f0 8c d8 d6 bd 77 c9 66 bd 28 b0 e8 3d 3f 4f 33 3e
       -0.10490522 -0.056344476 0.11361724 0.17510699
000300 0b 3c e6 3d 16 50 dc bc 88 ef d6 3c f5 18 b2 bc
       0.11241921 -0.026893657 0.026237264 -0.021740416
000310 96 69 92 3d 7d 3b 94 3d 0e 67 37 3c b6 16 ca bc
       0.07149045 0.07237909 0.011194004 -0.024669033
000320 73 d4 2d 3e 1b 83 91 bc b0 1a 2f bd 0b 84 b0 3d
       0.16975574 -0.017762711 -0.04275006 0.08618935
000330 ae fe f4 bd af 97 0b be 1d 2d 64 3d 86 e7 a4 3c
       -0.11962639 -0.13632081 0.055707086 0.02012993
000340 83 32 15 3e 49 81 03 3c 51 01 78 bd d0 df 81 3d
       0.1457005 0.008026429 -0.06054813 0.06341517
000350 7e 5e 06 3d cc 78 bf 3d 6b 08 36 3d 80 90 8f bd
       0.03280496 0.09349212 0.04444162 -0.07009983
000360 a2 9b 4b bd d6 72 4b 3e e3 96 4d 3e fd 88 ed bc
       -0.04970897 0.19868025 0.2007709 -0.028995985
000370 04 65 f4 3c d4 12 0d 3d 13 c0 48 bd 01 15 41 3c
       0.029833324 0.034441784 -0.0490113 0.011784793
000380 ba d2 e4 bc db 5e 91 3d a0 5e 1b bc 06 f6 ad bd
       -0.027932514 0.0709817 -0.00948301 -0.08494191
000390 9a 5a 80 3d c4 63 53 3e a5 26 b1 bc 21 82 eb 3d
       0.06267281 0.20643526 -0.021624872 0.114994295
0003a0 19 ff 26 3e 7e 18 4f 3e 14 01 9c ba ec c8 38 3d
       0.1630825 0.20224187 -0.0011902177 0.04511349
0003b0 78 72 1d bd 82 78 77 bd a1 77 d6 3d 07 1b 4a 3d
       -0.038439244 -0.06041766 0.10472036 0.04934218
0003c0 92 d4 ad 3d 1a 40 ef bd 7f d9 f5 bc 57 2a ec bd
       0.0848781 -0.11682148 -0.030010937 -0.11531513
0003d0 c2 f1 1b 3d 34 eb 8f 3d 42 b0 4e bd 04 af 1f 3d
       0.038072355 0.07027283 -0.05046106 0.038985267
0003e0 22 80 bd bd 8f 33 8b 3c 11 6b 76 3d 57 48 32 be
       -0.09252955 0.016992358 0.0601607 -0.17410408
0003f0 4a 32 26 be f7 3e 29 bd de b8 1e be 26 cd 67 be
       -0.16230121 -0.041319814 -0.15500209 -0.22636852

conv1.bias f4 [4]
000000 82 cc fd bd 67 cc 4f 3e bd 4a 31 3e 27 72 78 bd
       -0.123925224 0.20292817 0.17313667 -0.06065574

bn1.weight f4 [4]
000000 ca a1 22 3f 63 7f bd 3f 4e e1 db 3e 9b c5 04 3f
       0.6352812 1.48045 0.4294533 0.5186402

bn1.bias f4 [4]
000000 e3 74 b2 be bf 47 d7 3e 73 6d 1e be 7d 2d c9 be
       -0.34854802 0.42046925 -0.15471439 -0.39292517

bn1.running_mean f4 [4]
000000 af 61 07 be 29 0f 56 3e 8e 69 13 3e b9 df 98 bd
       -0.13220857 0.2090422 0.14395735 -0.07464547

bn1.running_var f4 [4]
000000 77 1e a3 3d f4 75 04 3d 82 9b 9a 3d 2d 7a b4 3d
       0.07964795 0.03233905 0.07549192 0.08812366

conv2.weight f4 [8, 4, 4, 4, 4]
000000 12 46 9a 3d db 80 35 bd cf 18 4b 3d 36 79 c8 3d
       0.07532896 -0.04431234 0.049584206 0.09788744
000010 80 f7 21 3d 1e 7e 75 bc 8e eb 0d bd 0d 17 d1 3d
       0.039542675 -0.014983682 -0.03464847 0.10209475
000020 61 cf 1a 3b b5 6b 8b bc 4e 42 2e 3d 56 4c a0 bc
       0.0023622143 -0.017019132 0.0425437 -0.01956765
000030 d2 27 75 bd 38 98 89 3b 2d 92 13 3d cd 22 c5 bb
       -0.05985243 0.004199054 0.036028076 -0.0060161115
000040 ef 47 ad 3c 89 1e 69 bd 88 34 4c bd 90 11 41 bb
       0.021152465 -0.056913886 -0.049854785 -0.002945993
000050 d1 4e d0 3c 72 02 0a 3d ab 6d b8 ba ee 50 e0 3c
       0.025428208 0.03369374 -0.001407077 0.02738234
000060 8a 04 86 bc 42 94 ae bd e8 68 2f 3c d1 f1 a5 bb
       -0.016359586 -0.08524372 0.010706164 -0.005064227
000070 9f 14 30 bd b7 37 c2 bd 66 1e 1e 3d 34 f1 4b 3d
       -0.042988416 -0.09483283 0.03860321 0.049790576
000080 68 ba 1d 3d 75 03 68 bc 42 91 ac ba 3d 0f 6e 3d
       0.03850785 -0.0141609805 -0.0013165849 0.05812
000090 ce dc 8b bd dc ce 95 3c 02 c8 a9 3c 46 f1 bb 3d
       -0.068292245 0.018287115 0.020725254 0.09176879
0000a0 8d 52 64 bc 44 4b 04 3c 0e 12 ee 3b 83 52 c8 3c
       -0.013935697 0.008074585 0.007265336 0.024453407
0000b0 c8 13 94 bd 8c b7 c6 bd 2a b1 82 bd 36 57 66 3b
       -0.072303355 -0.097029775 -0.063814476 0.0035147197
0000c0 f0 96 b5 3c b1 ea 31 bd 68 ad a0 3d 83 46 33 3d
       0.0221667 -0.04343671 0.078455746 0.043768417
0000d0 39 2e 24 3d 2f fc 86 bd 97 00 d5 bc f8 ac b2 3d
       0.040083144 -0.06591069 -0.026001258 0.087243974
0000e0 51 77 3d bd 5d 5a b8 bd a7 d1 2a 3c 0e 01 ee 3c
       -0.046256367 -0.090016104 0.010425962 0.029053237
0000f0 3c 06 92 bd 34 05 73 bd 93 0d 21 bd 97 8b d9 bc
       -0.07130095 -0.059331134 -0.039319586 -0.02655582
000100 bb 42 fc bd 33 db ec 3d 19 f5 a8 3d 77 19 14 3e
       -0.12317415 0.115652464 0.08249874 0.14462839
000110 a8 f5 b7 bd 34 76 55 bd f7 ab ba 3d d7 e3 00 3d
       -0.08982402 -0.05211468 0.09114831 0.031467285
000120 b4 ff da bc 21 33 fa bc a8 49 10 3d e9 b1 92 3d
       -0.026733257 -0.030541958 0.035226494 0.0716284
000130 a9 54 5a be b1 37 a9 3d 0c e1 1e 3d ad c3 a6 3d
       -0.21321358 0.082625754 0.03878884 0.08142791
000140 55 70 93 bd 64 66 a1 3c 57 68 9d 3c b9 48 75 3c
       -0.0719916 0.019702144 0.019214792 0.014970952
000150 09 ea 57 bd 46 7d fb bc 97 3c 6c 3d 40 c1 ae bd
       -0.052713428 -0.030699383 0.05767497 -0.08532953
000160 9a 19 84 3c 0c ec a5 b9 1f 36 47 3c b6 56 0a bc
       0.016125489 -0.0003164712 0.0121589 -0.008443525
000170 b6 e8 53 3d d0 ae e7 3d c4 3c 37 3d 05 fd 16 3d
       0.051735602 0.1131264 0.044735685 0.036862392
000180 f9 fb 2a be c3 2b db bd 9f 24 92 bb 69 8a 6c 3b
       -0.16697682 -0.10701706 -0.004459932 0.003609324
000190 90 f7 d6 bd e4 46 60 3d ac b8 1e 3d c6 d9 06 bc
       -0.104964375 0.054755107 0.038750336 -0.008230632
0001a0 71 3b f5 bd 35 ec 5e 3c b2 61 69 3d 3c 9b 18 3d
       -0.11974228 0.013606121 0.056977935 0.037257418
0001b0 1a d5 1d bd a0 4d 4a 3d 2b 14 59 3c 0e a7 b5 bb
       -0.038533308 0.049390435 0.013249437 -0.005543596
0001c0 37 c3 03 3f be 63 8a bd 93 81 14 be e4 c4 20 be
       0.5146975 -0.067573056 -0.14502554 -0.15700108
0001d0 97 b0 ad 3e de a7 c6 3d fd 64 ef bd b1 fa 06 be
       0.3392379 0.09699987 -0.11689184 -0.13181569
0001e0 a6 b3 b2 3d eb bf 25 3e e3 79 b1 bd d6 c3 1e be
       0.087256715 0.16186492 -0.08665826 -0.15504393
0001f0 93 34 89 3d 8c 28 8e bc 7a 3f 93 bd 37 4c b9 bd
       0.06699481 -0.017353319 -0.071898416 -0.0904774
000200 c9 39 2e bd 1a 02 91 3d 97 a2 d6 3d f4 fb 9a 3c
       -0.042535577 0.07080479 0.1048023 0.018918969
000210 7e be 84 3d 80 a5 17 bc f3 f8 0d bd 02 56 3d bc
       0.06481646 -0.009255767 -0.034661245 -0.01155615
000220 c6 9f 01 bd 7f 94 03 be e1 d1 3e bd 36 3b 31 bd
       -0.031646512 -0.12849616 -0.046586875 -0.04326936
000230 67 b7 3c 3d 78 00 0f bd 7e e0 47 3d 1f 0b b2 3d
       0.046073344 -0.034912556 0.048798077 0.086935274
000240 8a 79 6c bd 03 ef d0 bb 17 09 14 3d 04 c0 ec bc
       -0.057733096 -0.0063761487 0.03614148 -0.028900154
000250 83 16 1a 3d 89 85 fa bc 64 c6 4c 3d 41 11 19 3d
       0.037619125 -0.030581253 0.049993888 0.03736997
000260 a6 a0 a4 bc 91 71 b9 bd a9 71 76 3c 0b cc 69 3d
       -0.020096134 -0.09054864 0.015041747 0.057079356
000270 12 56 a6 3b 38 ec e0 3c 94 9e 74 bc f0 c8 9d bc
       0.0050761783 0.027456388 -0.014930386 -0.019260854
000280 5d f2 89 3d ba 34 26 3d 27 c6 22 bd 4a d8 17 3c
       0.0673568 0.040577628 -0.039739754 0.009267876
000290 f6 46 4f bd a5 f6 81 3c 76 b5 92 3c 08 a4 8e bd
       -0.050604783 0.01586468 0.017908793 -0.0696488
0002a0 18 de c7 bd 7a e8 c0 3d 1d 77 45 3d 49 e3 dc 3b
       -0.09759158 0.094193414 0.0482093 0.0067409617
0002b0 1f 71 a9 bd c5 9f 8e 3c 45 52 5a bb a3 aa 6d 3d
       -0.08273529 0.017410168 -0.0033313197 0.05802406
0002c0 25 ff c4 3a c1 5a 8c 3d 4a 0d 32 bd b5 8a 37 bd
       0.0015029652 0.068532474 -0.043469705 -0.044810016
0002d0 95 be 9d bd ae f6 74 3d f2 85 96 bd fb a3 69 bd
       -0.07702366 0.059805565 -0.07349767 -0.05704115
0002e0 59 a4 2e bd 47 eb d9 3d 7f ff 53 3d f1 49 aa 3c
       -0.042637203 0.10640579 0.051757332 0.020787211
0002f0 88 7a 73 bd 87 57 ec 3d d0 ce 81 3b 25 7f 7d bd
       -0.059443027 0.11540132 0.0039614215 -0.061888833
000300 ce 7b 59 3b 0c ee 7b 3d b8 49 05 3d ff 32 15 3d
       0.0033185366 0.061506316 0.032541007 0.036425587
000310 c9 77 cf ba 7a 93 78 3d e0 30 c6 3b 16 e0 ec 3c
       -0.0015828545 0.06068752 0.006048307 0.028915446
000320 f3 b8 36 bd 1f f3 f4 bc d1 dc 49 3c 0d e7 a7 ba
       -0.044609975 -0.029901085 0.012320713 -0.0012809947
000330 88 1d 59 3d 25 6a 40 bd 4e 36 8d 3d 69 56 81 3d
       0.05300668 -0.046976227 0.068951234 0.063153096
000340 f7 e0 8b 3c 7e 59 03 bd af 9f f9 bc 1b 22 e7 3b
       0.017075045 -0.03206777 -0.03047165 0.0070536262
000350 3e e2 1d 3d 87 69 72 3b c7 38 ea 3c e6 33 6a 3d
       0.03854584 0.0036989169 0.028591527 0.0571784
000360 4d f7 35 bc 54 b7 8c bc 15 01 48 3d b1 c2 2a 3d
       -0.011106324 -0.017177261 0.048829157 0.04168958
000370 45 56 69 bd 2c 61 84 bd 0d 9e 5c bd 77 bf 0f bc
       -0.05696704 -0.064638466 -0.053861666 -0.008773676
000380 c4 b8 42 bd 05 a5 c5 3c 73 6f 8d 3c e3 f7 92 3d
       -0.047539487 0.024126539 0.017265057 0.07176187
000390 d7 a0 b9 3b 86 a9 b1 3c d8 60 47 3b d0 23 fe bb
       0.0056649256 0.02168728 0.0030422714 -0.007755734
0003a0 7d ee 81 3d 04 67 73 bd 18 2f 26 3d 9a 08 5d 3c
       0.06344316 -0.059424415 0.040572256 0.01349082
0003b0 2b 7a e0 3a 37 f8 78 bc e1 a9 19 bd 94 2b 6d 3c
       0.0017126253 -0.015195898 -0.037515525 0.014475722
0003c0 e1 ab b8 3c 7b 77 db bc 8d f7 e1 bc 01 24 91 3d
       0.022542896 -0.026790371 -0.027583862 0.07086945
0003d0 46 e8 e0 bc 09 0b f1 bc bd 57 d4 3c 1f 6a 36 ba
       -0.027454507 -0.029424207 0.025920743 -0.00069585623
0003e0 51 12 10 bd c8 e5 e2 3c c9 2c fc bc f7 7d de bc
       -0.035173718 0.027697459 -0.030783074 -0.027159674
0003f0 08 36 6a bd 4a fb 50 bd e0 6c 55 bd 76 3b 10 bb
       -0.057180434 -0.051020898 -0.052105784 -0.0022008098

conv2.bias f4 [8]
000000 00 b2 a1 bc a6 44 a3 bd 7f 65 a2 3c 5a 76 3f 3d
       -0.019738197 -0.07972078 0.019823788 0.04674373
000010 2d 3d 38 bd a3 fb 62 bd a9 22 55 bc 48 dc 64 3d
       -0.044980217 -0.05541576 -0.013008752 0.05587414

bn2.weight f4 [8]
000000 5f a5 bc 3f 5d e5 84 3f cc ae 8a 3f d0 70 58 3f
       1.4737967 1.0382496 1.0834594 0.8454714
000010 c7 9e 42 3f b2 37 37 3f 1c 8c 29 3f e5 f4 3e 3f
       0.76023525 0.7156936 0.66229415 0.7459243

bn2.bias f4 [8]
000000 94 1b 6d bd 2b a2 a8 bd c3 b4 f9 bd 85 3b 2f bc
       -0.05788763 -0.08234056 -0.12192681 -0.010695343
000010 35 4a cb bd b8 cc 2b bd b6 39 12 be dc 6b 0e be
       -0.09926263 -0.041943282 -0.14279827 -0.13908333

bn2.running_mean f4 [8]
000000 93 31 69 3d cb a7 9f be 13 c2 9d 3d 76 45 32 be
       0.056932043 -0.31182703 0.07703032 -0.1740931
000010 86 d3 1d be d5 6c cf 3d ed 8b 99 bf 3b ee 8c 3e
       -0.15412721 0.1012818 -1.1995827 0.27525505

bn2.running_var f4 [8]
000000 98 c8 1b 3e 33 fc 0e 3f b2 bc 2b 3f 7b 9b 5d 3f
       0.15213239 0.55853575 0.670848 0.8656537
000010 70 85 ec 3f 2b 12 35 3f cf 57 62 40 9c f2 27 3f
       1.8478222 0.7073085 3.5366094 0.6560457

conv3.weight f4 [16, 8, 4, 4, 4]
000000 18 ae 15 3d 5c 5d bb 3c 86 7b ce bc 68 c0 1a bd
       0.036542982 0.022871666 -0.025205385 -0.03778115
000010 86 ed 30 3d f4 0d 1b 3d d6 b3 40 3c 6d c3 ec 3c
       0.04319527 0.037855104 0.011761626 0.02890178
000020 ee 46 b5 3b ee 78 15 bd 56 b5 f5 bc 03 22 1a bd
       0.005532137 -0.03649228 -0.029993694 -0.037630092
000030 fd b6 ae 3c e1 dd 27 3d af 67 90 bc 45 5e 31 bd
       0.02132749 0.040983085 -0.017627565 -0.043302793
000040 4f c4 c2 bc 10 a9 34 3d dc ca 29 bd ea 21 32 3d
       -0.023775248 0.044106543 -0.041453227 0.043489374
000050 12 15 54 3a c5 a1 53 bd 8c ed b1 3c 5b cd bd 3c
       0.0008090298 -0.051667947 0.021719716 0.02316921
000060 01 f0 59 bc 78 c6 15 3d 06 c3 d6 ba 45 62 87 bd
       -0.01330185 0.036566228 -0.0016385026 -0.0661054
000070 68 f2 15 3d 43 9b ee b9 92 1e 74 3d 1a c4 14 bd
       0.03660813 -0.00045510576 0.059599467 -0.03631983
000080 42 c3 1a 3c 5b 9e 06 bd d1 ca 0b 3d ce ed a5 3c
       0.009445967 -0.032865863 0.034128968 0.020254996
000090 87 6c dd bc 24 b5 2b 3d 6c a1 8d bd d0 8e a3 3c
       -0.027029289 0.041920796 -0.069155544 0.01996556
0000a0 8d b1 1e bd 9e 54 57 bd 4b 8c f2 bc 4f 6b ef bc
       -0.038743544 -0.05257093 -0.029607913 -0.029225973
0000b0 84 5f fc 3c e3 41 ca bc 1d bc a9 3c 26 7b 9a 3e
       0.030807264 -0.02468962 0.020719582 0.3017208
0000c0 87 d6 b5 bc 75 ca bf bc 8a 48 0e bd 2e 1e 83 ba
       -0.022197021 -0.023411969 -0.034737147 -0.0010003501
0000d0 db 2d da 3c cb 16 0e 3c 5f 2a d5 3c 17 13 55 3c
       0.026633194 0.008672426 0.02602118 0.01300504
0000e0 0d 4d be 3c e5 37 df 3b 8d 77 88 bd 65 86 68 be
       0.0232301 0.006812083 -0.066634275 -0.22707517
0000f0 de 55 46 3c b2 1b 80 bd e2 39 8a 3d 74 de f7 bd
       0.012105433 -0.062552825 0.067493215 -0.121029764
000100 d5 fc c6 3c e8 06 b9 bc bd 3d 2d 38 c4 50 2b 3d
       0.024290482 -0.022586301 4.1303912e-05 0.04182507
000110 a0 54 99 3c 7a 1e 9f 3a 34 f8 04 3d bc d6 0b bd
       0.01871711 0.001213982 0.032463267 -0.034140334
000120 cc 7e 20 bd a9 91 17 bd 47 7d 09 3d 62 91 27 3d
       -0.039183423 -0.037004147 0.03356674 0.040910132
000130 82 19 25 3d 9d 47 75 3b 14 f1 d7 bb d5 0b 1e bc
       0.04030753 0.0037426718 -0.006590018 -0.009646376
000140 4e 6e a5 3b e2 7c b5 3c 7e 8f 8c 3c 67 3b 62 3c
       0.0050485497 0.022154275 0.017158266 0.013808108
000150 8b 74 1e 3d 9d db 3d 3d db 3a 15 3d 67 bb 24 3d
       0.038685363 0.046352018 0.036433082 0.040217783
000160 6b 75 5c bc cc 9c 60 3d 4c ef 29 bb 32 e4 45 bd
       -0.013455729 0.054837033 -0.0025929986 -0.048313327
000170 92 d2 f9 bc 11 7f d5 3c fe 77 fe bb 24 2c 38 3c
       -0.030495916 0.026061567 -0.007765769 0.011240993
000180 b4 42 e9 bc 1e e5 04 bb 70 e4 c2 bb 68 ef f9 3c
       -0.02847419 -0.0020278166 -0.005947642 0.030509666
000190 e6 a0 ca bc 1a 6d ac bc b0 90 c3 bd ac 3f 93 3d
       -0.024734925 -0.021048117 -0.09549081 0.07189879
0001a0 05 58 15 bd a8 13 07 bc a4 8c 34 be 64 46 43 bc
       -0.036460895 -0.0082444325 -0.17631775 -0.011918638
0001b0 45 f8 8b 3c 93 c1 e2 3c 73 83 a4 bd 98 55 64 3d
       0.017086158 0.027680194 -0.080328844 0.05574569
0001c0 98 48 b4 3b a6 34 02 3d c6 95 20 3c f0 27 77 bc
       0.005501818 0.03178849 0.009801334 -0.015085205
0001d0 99 47 6b 3c 5e e8 24 bd a8 c3 56 bc 07 42 1a bd
       0.014360332 -0.040260665 -0.0131081715 -0.037660625
0001e0 cb 01 41 3a 3d af 1c 3d ad cb 68 3c 7e 44 7b 3d
       0.0007362633 0.038253058 0.014208716 0.061344616
0001f0 82 e2 e9 bc e4 54 af 3c 07 30 8a 3b a0 c3 2e 3c
       -0.02855039 0.021402784 0.004217151 0.010666758
000200 29 8f 23 3d 8e 7d d5 bc e3 b5 f7 3c 8a 00 a9 bc
       0.03993145 -0.026060846 0.030238098 -0.02063014
000210 68 3b 89 3c 4f 52 19 bd 10 bf 15 bc 80 d0 aa 3b
       0.01675196 -0.03743201 -0.009139791 0.0052128434
000220 5c 15 e5 3b 39 55 90 bc 50 49 21 3d 47 23 91 3b
       0.0069910716 -0.017618762 0.039376557 0.004429254
000230 f7 e0 b0 bc 8b 0e 8a 3c 14 18 3f 3c 72 1b e7 3a
       -0.021591647 0.016852638 0.0116634555 0.0017632081
000240 7e 23 b2 3c 2c fc 0e bd 42 62 82 3c f7 89 e1 bc
       0.02174544 -0.03490846 0.015915994 -0.027531607
000250 fc d1 f7 3c 91 c3 6d 3c 27 58 6e 3c 57 bf 0b 3c
       0.030251496 0.014511959 0.014547384 0.008529506
000260 47 64 12 bd 44 55 9e 3a 32 64 91 3c 2d 7b 80 bd
       -0.035740163 0.0012079854 0.017747972 -0.06273494
000270 35 3d 70 bc 9a c7 19 bc 50 d4 0c bd a6 c9 7b bc
       -0.01466303 -0.009385968 -0.034382164 -0.015367901
000280 30 b7 82 3c b4 e2 f2 bc a5 b7 25 3d 85 4a 2f 3d
       0.015956491 -0.029649116 0.04045834 0.042795677
000290 4f b4 e2 bc 90 7d 03 3d 83 b8 39 bd f4 57 7c 3d
       -0.027673868 0.032102168 -0.04534198 0.061607316
0002a0 1a 6f 1d bd 91 7c dd bc b3 8c 48 bc d0 7c 33 3b
       -0.038436033 -0.027036937 -0.012240577 0.0027387626
0002b0 ef ad f9 bc fb d9 e3 bc dc 35 ab bd ef 84 2b 3e
       -0.030478446 -0.027813902 -0.08359882 0.16749929
0002c0 40 5a 00 3d d1 2f 08 bd b6 89 08 bd 44 75 d7 bc
       0.03133607 -0.033248726 -0.033334456 -0.026301034
0002d0 38 37 d3 bc 56 d5 16 3b 2b 36 bd 3b 96 e6 ec bb
       -0.025783166 0.0023015342 0.0057742796 -0.0072296364
0002e0 44 07 8c 3b a3 2e 44 3c d4 e5 fa bc 6e 46 33 be
       0.004273327 0.01197401 -0.030627169 -0.17507336
0002f0 e7 e3 de 3c c4 7d 99 3c 21 86 33 3d c4 34 58 3d
       0.027208282 0.018736728 0.043829087 0.052784696
000300 a7 d2 78 3a ff 00 84 bc c5 10 15 bd 83 06 b4 3c
       0.0009491839 -0.016113756 -0.036392946 0.021975761
000310 cb c1 39 bc c0 53 9b 3b 99 00 7c 3c e3 b0 91 3c
       -0.011337708 0.0047402084 0.015381002 0.017784541
000320 be e1 85 3c 7a 44 06 3d fd 60 1c 3d cf c9 cb bc
       0.016342994 0.032780148 0.038178433 -0.024876503
000330 d8 3f 11 bd b4 4c 30 bc 3e dc e3 bc 0e 31 26 3d
       -0.035461277 -0.010760475 -0.02781498 0.040574126
000340 62 63 26 bc d8 c0 d4 3c e7 7f 73 3c 01 5d b3 3c
       -0.010155531 0.025970861 0.014862037 0.021894934
000350 9d 68 be 3c c2 bd 0f 3d 39 44 55 3b c7 d0 dc bc
       0.023243243 0.035093077 0.0032541885 -0.026955022
000360 82 d5 1f 3d 95 81 d7 bc ae 4a 18 3d d6 1d 52 3c
       0.039021976 -0.026306907 0.037180595 0.012824496
000370 44 20 da 3c 4b 6b 05 bc 59 12 0a ba b6 97 f6 3c
       0.026626714 -0.008143256 -0.0005267016 0.030101638
000380 82 d7 8c 3b 8f 05 95 3b c4 73 89 3c 75 57 90 3a
       0.0042981515 0.004547782 0.016778834 0.0011012392
000390 6c dd b5 3c c0 0e 93 3c 17 18 ef bb fd 86 20 3d
       0.022200309 0.01795137 -0.007296573 0.039191235
0003a0 c4 be 01 3d 24 14 b5 bc ff 87 87 bd df bf 4a bc
       0.03167607 -0.02210433 -0.06617736 -0.012374847
0003b0 f4 11 32 bd 7c 5d ff 3c 7f 67 6b 3d b9 b9 c3 bd
       -0.043474153 0.031172507 0.05747175 -0.09556908
0003c0 f6 de 28 bc 2c 9f 90 3c 3f ca 65 3c 32 b1 46 bb
       -0.010307064 0.017654024 0.01402527 -0.003031802
0003d0 88 00 28 bd 3d 78 92 3c 0e f6 b3 3b b9 06 04 bd
       -0.04101613 0.0178796 0.0054919785 -0.032232974
0003e0 76 cd bf 3c 43 58 b6 bc 3c e5 0a 3d e4 7c 45 3e
       0.023413401 -0.022258883 0.03391002 0.19285923
0003f0 5c 2f 30 bd 6c e9 ad bc fe df cf bc 54 50 70 bd
       -0.043013915 -0.021229468 -0.025375362 -0.058670357

conv3.bias f4 [16]
000000 eb 77 51 3d 56 f1 c4 3c be a9 e5 bc bc f6 46 3c
       0.051139753 0.02404086 -0.028035041 0.012143787
000010 9f 82 5f bd ee f3 e3 bc 0c 81 46 bd 07 43 c5 39
       -0.05456793 -0.027826276 -0.048462912 0.00037624707
000020 d4 50 b5 3a 3b 15 80 3d ee 2f 80 3b 7b 01 20 3d
       0.0013833293 0.062540494 0.0039119637 0.039063912
000030 0d 3b f5 3c ed 75 0e bd f2 7b 3d bb 6b 42 30 3d
       0.029935384 -0.03478043 -0.0028912988 0.04303209

bn3.weight f4 [16]
000000 6c 27 b0 3f 22 ba a3 3f fe 00 b8 3f df 94 b8 3f
       1.3762031 1.2791178 1.4375303 1.4420432
000010 a7 89 ad 3f 8a 47 09 40 d2 38 c8 3f d1 0f d5 3f
       1.3557633 2.1449914 1.564234 1.6645452
000020 7c 12 cb 3f 64 c9 b1 3f dc 05 b2 3f 3c b1 eb 3f
       1.5865016 1.3889585 1.3908038 1.8413463
000030 56 61 a5 3f f2 16 b3 3f 40 c8 be 3f ab b5 ac 3f
       1.292033 1.3991377 1.4904861 1.3492941

bn3.bias f4 [16]
000000 fc e2 03 3e 73 00 2e 3e 4c c1 44 3e b6 dc 49 3e
       0.12879556 0.16992359 0.19214362 0.19713101
000010 0b df 30 3e e0 68 0c 3f 07 8b 92 3e 79 4d e1 3e
       0.17272584 0.54847527 0.28621694 0.4400442
000020 4d 3c ba 3e ef 08 3d 3e 84 b2 99 3e b5 2e e5 3e
       0.3637413 0.18460439 0.3001901 0.44762197
000030 27 e5 19 3e 24 40 b1 3e 41 d4 18 3e 49 5d ca 3e
       0.15028821 0.34619248 0.14924718 0.39524296

bn3.running_mean f4 [16]
000000 9f fb c2 bd 0e 27 ec bd 1f b1 cc bd f0 5f e4 bd
       -0.09520649 -0.115308866 -0.09994721 -0.11151111
000010 12 5c 4c be 1b 71 29 3e a0 c0 dc 3d 4f b6 9c 3e
       -0.19956997 0.16547053 0.10778928 0.3060784
000020 de 2c ea 3b 58 62 30 bd 94 89 b8 3d 1b 32 32 3e
       0.007146462 -0.043062538 0.09010616 0.17401926
000030 b6 07 21 be a2 f7 5f be b7 24 ed bd 11 73 f3 3d
       -0.15725598 -0.21871808 -0.115792684 0.118871816

bn3.running_var f4 [16]
000000 66 ca a8 3c 88 8b d0 3c 88 b3 d4 3c 28 1d cd 3c
       0.020604324 0.025457159 0.025964513 0.025038317
000010 21 b6 dc 3c 30 3a 1d 3e 38 d1 a4 3e c4 b1 bc 3e
       0.026942315 0.15354228 0.3219087 0.36854374
000020 e0 c8 f6 3d fc 0f 8f 3c 34 0f 86 3c a7 13 ae 3e
       0.120500326 0.017463677 0.016364671 0.3399937
000030 81 48 b5 3c 83 c8 cd 3c f5 6b bb 3c 9d d5 ac 3d
       0.0221293 0.025120026 0.022878626 0.08439181

linear.weight f4 [2, 16]
000000 c6 80 8f 3e 57 94 f8 3e 23 8b 8c 3e 15 1e 87 3e
       0.28027934 0.48550674 0.27449903 0.26390138
000010 89 c5 e6 3e 71 8a 4a bf ba 83 0b bf 52 f9 17 bf
       0.45072582 -0.79117495 -0.54497874 -0.5936481
000020 21 5b 17 be 3d fd f8 3e 14 0c 07 bf d9 ff c9 be
       -0.14780857 0.48630705 -0.52752805 -0.3945301
000030 b2 b2 d0 3e 0e f3 10 bf f2 b6 9e 3e 9b 2d 8b be
       0.40761334 -0.5662087 0.3099895 -0.27183232
000040 f1 67 f5 be 5b d7 d5 be e3 88 b4 be f3 14 b3 be
       -0.47930863 -0.41765866 -0.35260686 -0.3497692
000050 d3 53 cc be 57 be c6 3e 69 e3 15 3f 82 80 fb 3e
       -0.39907703 0.38817093 0.58550125 0.4912148
000060 08 e6 1e 3f ae aa f5 bd c6 f8 cf 3e 26 42 11 3f
       0.6206975 -0.11995445 0.40619487 0.5674156
000070 72 cb e3 be 07 a2 a3 3e d8 d3 ce be a4 40 ea 3e
       -0.44491154 0.31959555 -0.40396 0.45752442

linear.bias f4 [2]
000000 73 17 ce 3d c2 5f 16 3e
       0.10063066 0.14684966
